asset/model_cancer.tflite (tflite, 272640 bytes, 14 tensors)

dense_2/bias f2 [7]
000000 73 9f e7 2d 6a 32 bf ad 0b b1 21 b0 2b a8
       -0.007275 0.0922 0.2004 -0.0898 -0.1576 -0.129 -0.03256

dense_1/bias f2 [32]
000000 0f a4 43 a1 47 a5 d4 a9 02 a5 a9 a9 58 24 3f a9
       -0.01585 -0.01028 -0.02061 -0.04553 -0.01956 -0.04422 0.01697 -0.041
000010 89 a8 a7 ac 4a ac 47 a7 68 2f fa ad fd 97 34 96
       -0.03543 -0.0727 -0.067 -0.02843 0.1157 -0.0934 -0.00195 -0.001514
000020 85 9c 5d 31 4e 2b 3e a8 1f ad 48 ac bf a8 c8 a3
       -0.004414 0.1676 0.05707 -0.03314 -0.08 -0.0669 -0.03708 -0.0152
000030 58 a0 df af e2 2e 61 ae de 2e a7 a9 c4 b2 71 ae
       -0.008484 -0.123 0.10754 -0.0997 0.1073 -0.04416 -0.2114 -0.10065

dense/bias f2 [64]
000000 6d a3 45 9f 27 a5 65 26 1a 2e 57 ad c1 a2 86 a5
       -0.0145 -0.0071 -0.02013 0.02498 0.09534 -0.08344 -0.01319 -0.02158
000010 f4 a8 5a a4 16 a4 5c a4 4f a5 9a a4 8f a7 75 31
       -0.0387 -0.017 -0.01596 -0.01703 -0.02074 -0.01797 -0.02953 0.1705
000020 f8 32 f0 2c 9b 21 91 a6 52 a8 f3 a7 07 a6 e4 a5
       0.2178 0.07715 0.01095 -0.02565 -0.03375 -0.03105 -0.02354 -0.02301
000030 57 a8 44 a8 ea ac 73 a9 9d ab b0 a2 84 a1 8a a0
       -0.0339 -0.03333 -0.0768 -0.04257 -0.05948 -0.01306 -0.01077 -0.008865
000040 b4 33 cc 2b 93 a6 43 2f e3 a4 9c a1 c0 a7 41 a7
       0.2407 0.0609 -0.02568 0.11346 -0.01909 -0.010956 -0.03027 -0.02834
000050 be ab f9 a3 d6 a5 69 a4 76 a7 cc a8 24 a5 11 b2
       -0.0605 -0.01557 -0.0228 -0.01723 -0.02914 -0.03748 -0.02008 -0.1896
000060 3f a3 93 22 33 a4 29 a9 16 a8 38 a3 6f ac 1b a9
       -0.01415 0.01284 -0.0164 -0.0403 -0.03192 -0.0141 -0.0693 -0.0399
000070 c2 a6 e6 a3 cc a9 39 23 9c 9e 8c a9 b8 a7 23 a1
       -0.0264 -0.01543 -0.0453 0.01411 -0.006454 -0.04333 -0.03015 -0.01003

conv2d_3/bias f2 [128]
000000 eb ab dd a9 c9 ac b7 b0 c7 32 03 2a 8c 27 de ab
       -0.06186 -0.0458 -0.07477 -0.1473 0.2118 0.04697 0.02948 -0.06146
000010 15 ac d0 ac 3a 2d 1f b0 22 ac 37 ae 1d 2e 3e a8
       -0.0638 -0.0752 0.08167 -0.1288 -0.0646 -0.0971 0.0955 -0.03314
000020 0e ab a6 b0 ae 2b df 2a 5a 2e 53 b1 c8 30 0b ab
       -0.0551 -0.1453 0.06 0.05368 0.09924 -0.1664 0.1494 -0.05502
000030 83 a9 c4 aa a8 b0 74 21 79 2c 42 b1 2b af b3 ac
       -0.04306 -0.05286 -0.1455 0.01065 0.0699 -0.1643 -0.112 -0.0734
000040 71 ab 15 a5 11 2a 9d ac a2 a9 87 ae 19 ab f3 ae
       -0.05814 -0.01985 0.0474 -0.0721 -0.044 -0.102 -0.05545 -0.1086
000050 80 ac 8f 2c e5 ad 6f 30 97 27 60 2e 4b ac c0 ae
       -0.0703 0.0712 -0.0921 0.1385 0.02965 0.0996 -0.0671 -0.10547
000060 c1 a9 2d 29 33 ac c5 2c 16 1a 00 ad e6 2a 0e 28
       -0.04495 0.04044 -0.0656 0.0745 0.002972 -0.0781 0.0539 0.03168
000070 2a af a7 b1 de 2d 3a a4 65 ad a0 2c 69 ae 0d 19
       -0.11194 -0.1766 0.0917 -0.01651 -0.0843 0.07227 -0.10016 0.002466
000080 ab 30 f0 a9 f0 2b 0a a2 6a 2d 8e ac e8 aa e6 26
       0.1459 -0.0464 0.062 -0.011795 0.0846 -0.07117 -0.05396 0.02695
000090 fa 24 35 ab 59 b2 14 2e 6d b1 de ac f4 2a eb a9
       0.01944 -0.0563 -0.1984 0.095 -0.1696 -0.07605 0.05432 -0.04623
0000a0 4e 29 a4 a9 6f ae 1d a8 89 a9 6b 28 c8 24 26 af
       0.04144 -0.04407 -0.1005 -0.03214 -0.04324 0.03452 0.01868 -0.1117
0000b0 7c 2e 83 a9 2b b1 0f ab 6b a1 33 b0 4d 2c f9 ac
       0.1013 -0.04306 -0.1615 -0.05515 -0.01058 -0.1312 0.0672 -0.0777
0000c0 7d b1 af 2c 0e 2e ca 2d 18 aa 6e b1 13 30 5f 2c
       -0.1715 0.0732 0.0946 0.09045 -0.0476 -0.1697 0.1273 0.0683
0000d0 15 af 77 19 93 ae 95 a2 2b 2f 1b 31 87 a6 87 2d
       -0.11066 0.002668 -0.1027 -0.012856 0.112 0.1595 -0.0255 0.08636
0000e0 1c ae c1 af ae 15 4c aa 10 aa 38 a3 42 a5 1b ac
       -0.09546 -0.12115 0.001387 -0.0492 -0.04736 -0.0141 -0.02054 -0.06415
0000f0 d7 16 77 b0 ad af 17 1f 6b b0 61 30 97 2f 18 2a
       0.00167 -0.1395 -0.11993 0.006924 -0.1381 0.1368 0.1186 0.0476

conv2d_2/bias f2 [64]
000000 f2 a5 1b ab 7a a7 1a 20 b1 a8 3f 29 7f 2e 7a ab
       -0.02322 -0.0555 -0.0292 0.00801 -0.03665 0.041 0.1015 -0.0584
000010 3f a0 c5 ae 07 29 cf a9 45 ac 51 1d 3d 2b 7b 2c
       -0.00829 -0.1058 0.03928 -0.04538 -0.0667 0.00519 0.05655 0.07
000020 7d ab 0f aa 66 a5 db 2c 67 a9 18 2e c6 ab 38 a5
       -0.0585 -0.04733 -0.02109 0.07587 -0.0422 0.0952 -0.06073 -0.02039
000030 b2 24 05 a6 a9 b0 3e 2e 25 ab dc b1 01 a6 33 ac
       0.01834 -0.02351 -0.1456 0.09753 -0.05582 -0.1831 -0.02345 -0.0656
000040 9c a8 8b ac 1d af df 2a 81 a0 a5 23 01 30 a7 ac
       -0.036 -0.071 -0.11115 0.05368 -0.0088 0.01493 0.1251 -0.0727
000050 16 24 08 22 cd a4 c3 2a 6a 2c a5 25 07 a0 50 ab
       0.01596 0.01178 -0.01875 0.05283 0.069 0.02205 -0.007866 -0.05713
000060 4a ad 4b a9 4a a6 a6 a9 9c a5 07 a5 08 ae a3 23
       -0.08264 -0.04135 -0.02457 -0.04413 -0.02191 -0.01964 -0.09424 0.014915
000070 7d a8 0e b0 07 a9 a1 a9 75 25 54 a2 ce ae 4f 20
       -0.03506 -0.1267 -0.03928 -0.04398 0.02132 -0.01236 -0.1063 0.008415

conv2d_1/bias f2 [32]
000000 2f ab cc ae 5c ac df af bc ac bd a9 fb af 81 2d
       -0.05612 -0.1062 -0.0681 -0.123 -0.074 -0.04483 -0.1247 0.086
000010 c3 22 aa a7 77 ac 19 2d 08 ac 1d ae 73 ae 6e 19
       0.01321 -0.02994 -0.06976 0.07965 -0.063 -0.0955 -0.10077 0.002651
000020 eb 2f ce 2c 11 30 72 a8 aa 24 05 2d b5 9f 46 29
       0.1237 0.0751 0.1271 -0.03473 0.01822 0.0784 -0.007526 0.0412
000030 43 0f ba b0 8e af cb ae c6 a7 40 ab 3f 28 f2 ae
       0.0004432 -0.1477 -0.11804 -0.10614 -0.03036 -0.05664 0.03317 -0.1085

conv2d/bias f2 [16]
000000 23 a8 0c 31 36 32 e6 33 d7 b0 0b b0 4e b2 fd 2d
       -0.03232 0.1577 0.1941 0.2468 -0.1512 -0.1263 -0.197 0.09357
000010 3d 30 0f 2e c2 ad 14 b1 ad 28 c6 2a e5 ab e9 33
       0.1324 0.09467 -0.08997 -0.1587 0.03653 0.05292 -0.06168 0.2472

sequential/dense/MatMul;sequential/dense/MatMul f2 [64, 512]
000000 fc 2d 0d 2c 56 ad c9 a7 76 af f6 2b 3b a8 7f 9e
       0.0935 0.0633 -0.0834 -0.03041 -0.1166 0.0622 -0.03305 -0.006344
000010 51 28 1b 2d a1 2b 28 2d 6c aa b9 ac e2 2a 30 2e
       0.03372 0.0798 0.0596 0.08057 -0.05017 -0.0738 0.05377 0.0967
000020 4d 2a 8b ae 1c 2d bc af a3 ab e9 ad cb ac 2e 30
       0.04922 -0.10223 0.07983 -0.12085 -0.05966 -0.09235 -0.0749 0.1306
000030 58 2d 24 aa ca a8 03 ab 18 2a 59 24 45 ae 66 a8
       0.0835 -0.04797 -0.0374 -0.05478 0.0476 0.01698 -0.09796 -0.03436
000040 19 ae f0 ac 97 28 e5 a5 55 a9 48 ad 94 28 7d 2c
       -0.0953 -0.07715 0.03586 -0.02303 -0.04166 -0.0825 0.03577 0.0701
000050 a4 28 d0 9d 49 21 f7 a1 5e a8 6c aa 29 2c 87 2b
       0.03625 -0.005676 0.01032 -0.01165 -0.03412 -0.05017 0.065 0.0588
000060 c5 aa c4 29 12 a8 d8 22 46 26 da 21 7e 28 0a aa
       -0.0529 0.04504 -0.0318 0.01337 0.0245 0.01143 0.0351 -0.04718
000070 78 2d 18 29 61 27 c5 a5 b6 25 82 ae d7 2b 50 ae
       0.08545 0.0398 0.02882 -0.02254 0.02231 -0.1017 0.06125 -0.09863
000080 93 a7 19 21 72 aa 0c ac 5c ad 83 25 5c 2d f2 a8
       -0.02959 0.00996 -0.05035 -0.06323 -0.08374 0.02153 0.08374 -0.03864
000090 d3 af b7 2c f6 2d 74 ad f6 ac 7e 2b 02 af 55 0d
       -0.12225 0.07367 0.09314 -0.0852 -0.0775 0.05853 -0.1095 0.0003254
0000a0 c0 2c c2 20 64 a7 12 a9 96 ac ef aa 62 a8 68 ad
       0.0742 0.00929 -0.02887 -0.0396 -0.07166 -0.05417 -0.03424 -0.0845
0000b0 7c ac d9 ab 3f 2c 44 ac f9 a4 9f a7 f2 9d 84 1e
       -0.07007 -0.0613 0.06635 -0.06665 -0.01942 -0.02977 -0.005806 0.006363
0000c0 2d 2e f8 aa d0 ab 44 a4 e7 2d fd 2c 47 ab 33 ab
       0.0965 -0.05444 -0.06104 -0.01666 0.0922 0.07794 -0.05685 -0.05624
0000d0 22 2b 84 2a 6a 21 65 2e c1 aa 49 2b 72 2a 09 9d
       0.05573 0.0509 0.010574 0.0999 -0.05276 0.05692 0.05035 -0.004917
0000e0 37 ad 70 ac 0f ac f1 ad 45 2c b5 18 28 a8 8b 28
       -0.0815 -0.06934 -0.0634 -0.09283 0.0667 0.002298 -0.03247 0.0355
0000f0 6d 29 73 29 6b ae 1d 2a cc ab 92 a1 71 20 a1 a9
       0.0424 0.04257 -0.1003 0.04776 -0.0609 -0.01088 0.008675 -0.04398
000100 8a 23 cf 28 94 2d 35 8b 9f 25 35 24 5b 2c bb a6
       0.014725 0.03757 0.08716 -0.00022 0.02196 0.01643 0.06805 -0.02629
000110 da 2c 09 a8 95 2b 18 2d 43 27 fa 2c d0 aa b5 ad
       0.0758 -0.03152 0.05923 0.0796 0.02837 0.07776 -0.05322 -0.0892
000120 7a 2d 09 b2 21 20 9a b0 2a 9d 69 26 ac 29 49 31
       0.0856 -0.1886 0.008064 -0.1438 -0.005043 0.02504 0.0443 0.1652
000130 9c ac b4 a9 db a3 46 26 09 21 a9 28 d4 a8 57 a7
       -0.072 -0.04456 -0.01534 0.0245 0.009834 0.0364 -0.03772 -0.02867
000140 21 9d da a9 ba 1f c1 a9 a6 28 d9 ab 11 2f 66 b1
       -0.00501 -0.04572 0.007545 -0.04495 0.03632 -0.0613 0.1104 -0.1687
000150 5c 26 01 2c 02 23 27 2d 88 08 2a 2c 4b aa 33 30
       0.02484 0.06256 0.01369 0.0805 0.0001383 0.06506 -0.04916 0.1312
000160 52 29 d4 ae 8b ab 10 2b ad ac e5 2e bf ac be 2b
       0.04156 -0.1067 -0.05893 0.05518 -0.07306 0.1077 -0.07416 0.0605
000170 59 aa 4e ac 5f a8 3d ac 1b 32 39 a8 e8 2d 42 2e
       -0.0496 -0.06726 -0.03415 -0.0662 0.1908 -0.033 0.0923 0.0978
000180 2c 26 cc 2c a9 2a f9 ac d7 b1 6f a6 84 2e aa ab
       0.02411 0.07495 0.05203 -0.0777 -0.1825 -0.02513 0.1018 -0.05988
000190 ae a1 68 ab 8b a8 aa 20 f2 24 48 2c bb ac 60 a8
       -0.01109 -0.05786 -0.0355 0.00911 0.01932 0.0669 -0.0739 -0.03418
0001a0 91 2c ca 2e d7 2d 01 a9 89 29 42 ad 79 aa 19 b1
       0.07135 0.1061 0.09125 -0.0391 0.04324 -0.08215 -0.05057 -0.1593
0001b0 55 a9 56 ac 22 2a 75 25 c4 2c 33 2d 07 9c fc 27
       -0.04166 -0.06775 0.0479 0.02132 0.07446 0.08124 -0.003933 0.03119
0001c0 62 29 ba ac e7 25 48 ad 7a 1b b3 a0 47 a9 1c 9c
       0.04205 -0.07385 0.02306 -0.0825 0.00365 -0.00918 -0.04123 -0.004013
0001d0 09 a7 ed ab 95 29 a7 2c 1c a3 72 2c 98 22 13 2e
       -0.02748 -0.06192 0.0436 0.0727 -0.013885 0.06946 0.01288 0.0949
0001e0 a5 26 48 ae d0 af 09 ab 3e ac 57 2d af b0 50 a9
       0.02596 -0.09814 -0.1221 -0.05496 -0.0663 0.08344 -0.1464 -0.0415
0001f0 e0 a3 eb ad 10 20 4b ad 91 2a 27 a9 0b 24 d0 29
       -0.01538 -0.09247 0.007935 -0.0827 0.0513 -0.04025 0.0158 0.0454

sequential/dense_1/MatMul;sequential/dense_1/MatMul f2 [32, 64]
000000 9b a3 4e 27 b4 b3 32 2c c4 32 db b1 3e 2e d8 af
       -0.014854 0.02853 -0.2407 0.06555 0.2114 -0.183 0.09753 -0.12256
000010 f8 b0 e3 af bd b1 f0 ae 26 30 bf af 42 ac 23 b3
       -0.1553 -0.1232 -0.1793 -0.1084 0.1296 -0.12103 -0.0665 -0.223
000020 28 9a a4 29 11 2e 70 2c 73 2c 78 2c 4d 29 c5 30
       -0.003006 0.04407 0.0948 0.06934 0.0695 0.0698 0.0414 0.149
000030 d1 b3 ad 30 3f b2 56 33 25 b5 7e 2a 34 b0 6f 33
       -0.2443 0.1461 -0.1952 0.2292 -0.3215 0.05072 -0.1313 0.2323
000040 ba 2c bb b0 63 2f 2d 24 24 30 ff 8d f7 b1 e4 a6
       0.07385 -0.1478 0.1154 0.01631 0.1294 -0.000366 -0.1864 -0.02692
000050 45 31 02 b4 de 24 df ab 1b a8 bf 31 dd 28 cd b3
       0.1647 -0.2505 0.01901 -0.0615 -0.03207 0.1796 0.038 -0.2438
000060 32 b0 a3 31 56 a5 83 b0 6a ad 74 ab 00 21 18 b1
       -0.1311 0.1761 -0.02084 -0.141 -0.0846 -0.05823 0.009766 -0.1592
000070 99 34 b8 b0 5c a1 28 31 f4 ae 2a af 16 2d 46 32
       0.2874 -0.1475 -0.01047 0.1611 -0.10864 -0.11194 0.07947 0.196
000080 fa 31 8f 26 36 94 d4 a1 9e b0 07 b2 6a 32 05 34
       0.1868 0.02562 -0.001028 -0.01138 -0.1443 -0.1884 0.2004 0.2512
000090 bb b1 11 2e f8 ae 5f 9d 94 30 5e 32 03 b1 77 af
       -0.1791 0.0948 -0.1089 -0.005245 0.1431 0.199 -0.1566 -0.11664
0000a0 6b 32 f1 b2 4d b2 1a 33 9d 33 90 33 42 b0 9a b0
       0.2006 -0.2169 -0.1969 0.2219 0.2379 0.2363 -0.133 -0.1438
0000b0 fd 2f 44 32 86 b1 7a a8 35 30 21 a9 ae 30 56 31
       0.1248 0.1958 -0.1726 -0.03497 0.1315 -0.04007 0.1462 0.1667
0000c0 04 ac 7b b3 1c b1 3a 27 d3 b0 25 2c 31 33 22 30
       -0.06274 -0.2338 -0.1597 0.02823 -0.1508 0.06476 0.2247 0.1292
0000d0 8c 2e 59 32 1d af 1d 2c 80 27 8b 2b c6 1e 2b ad
       0.1023 0.1984 -0.11115 0.0643 0.0293 0.05893 0.006615 -0.08075
0000e0 47 b0 7a b1 2f b0 53 ad 69 30 df 21 35 33 67 ae
       -0.1337 -0.1711 -0.1307 -0.0832 0.1378 0.01147 0.2252 -0.10004
0000f0 d1 2d f9 33 bb 32 2a 14 c8 b1 35 a9 c0 a9 cc 32
       0.0909 0.2491 0.2103 0.001017 -0.1807 -0.04068 -0.04492 0.2124
000100 a6 ad ac ac 8d 30 ff 2a f2 ae 27 2e 19 b2 a8 2f
       -0.08826 -0.073 0.1422 0.05466 -0.1085 0.0961 -0.1906 0.1196
000110 27 2f 88 33 c5 31 cf b0 4f b1 b3 32 b1 2c aa b1
       0.11176 0.2354 0.1803 -0.1503 -0.1659 0.2094 0.0733 -0.177
000120 5f 1d 24 b4 aa ae 71 b3 98 24 45 b0 df b0 3a a6
       0.005245 -0.2588 -0.1041 -0.2325 0.01794 -0.1334 -0.1522 -0.02432
000130 6d ad f5 b2 9d 31 07 26 c5 b0 7d 2c 9d a5 5e 25
       -0.0848 -0.2174 0.1754 0.02354 -0.149 0.0701 -0.02193 0.02097
000140 d3 a5 12 b2 8e 2f d5 a5 ad 25 0e ab ed b0 61 24
       -0.02275 -0.1897 0.11804 -0.02278 0.02217 -0.0551 -0.1539 0.0171
000150 c1 b1 28 2f 88 2a 92 2a dc ad c0 33 f5 ab 60 2b
       -0.1798 0.1118 0.05103 0.05133 -0.09155 0.2422 -0.06216 0.05762
000160 3c 1f 1c b3 09 b0 6e a7 57 33 42 33 6f 9c 58 b2
       0.007065 -0.2222 -0.1261 -0.02902 0.2294 0.2268 -0.00433 -0.1982
000170 ab 32 fa 2d ee 2d 63 b3 5a 2c c0 2c 93 33 59 30
       0.2084 0.0934 0.09265 -0.2308 0.068 0.0742 0.2367 0.1359
000180 e6 30 28 b0 36 a5 0e 2a 7f a6 bf 30 77 32 9d 32
       0.1531 -0.1299 -0.02036 0.0473 -0.02538 0.1483 0.202 0.2067
000190 99 2f f3 31 0d b2 ac 2f 0c ac 8a 2f 0a 34 11 2e
       0.1187 0.1859 -0.1891 0.1199 -0.06323 0.1178 0.2524 0.0948
0001a0 da 2f 48 34 3f 2d 12 2a 0f a5 17 b4 a0 b2 a9 28
       0.1227 0.2676 0.082 0.04742 -0.01976 -0.2556 -0.207 0.0364
0001b0 93 25 68 ad 46 aa 9b 31 12 35 13 a3 d5 17 13 2d
       0.02177 -0.0845 -0.049 0.1752 0.317 -0.01382 0.001912 0.0793
0001c0 e8 27 0c b4 50 33 96 33 b1 ae 80 ad d2 b3 59 2f
       0.03088 -0.253 0.2285 0.237 -0.10455 -0.08594 -0.2444 0.1148
0001d0 b4 30 8a 2e dc b1 34 b1 df ac 1e ac 44 19 cd 2b
       0.147 0.1022 -0.1831 -0.1626 -0.0761 -0.06433 0.002571 0.06094
0001e0 e3 2c 52 b3 bd 30 13 aa 4b 31 23 96 71 b1 2a ac
       0.07635 -0.2288 0.1481 -0.04745 0.1654 -0.001498 -0.17 -0.06506
0001f0 b0 ad 4d 32 82 ac 25 b4 d5 2d 51 2c 91 32 c3 a8
       -0.08887 0.1969 -0.07043 -0.259 0.0911 0.06744 0.2052 -0.0372

sequential/dense_2/MatMul;sequential/dense_2/MatMul f2 [7, 32]
000000 fa b2 b9 a8 c9 b5 d8 2a 51 b5 5a 2f 30 32 6e b1
       -0.218 -0.0369 -0.3616 0.05347 -0.3323 0.11487 0.1934 -0.1697
000010 28 30 3e b0 b5 b1 eb 31 89 31 ba b3 8d 33 0d 34
       0.1299 -0.1326 -0.1783 0.1849 0.173 -0.2415 0.236 0.2532
000020 2e 9e 08 33 bc 21 f7 32 4b a8 a6 2e 02 b5 eb 34
       -0.006035 0.2197 0.0112 0.2177 -0.03354 0.1039 -0.313 0.3074
000030 9f ab 16 36 fc b3 b1 b2 8c 2c d7 ab 07 ae c5 b2
       -0.05954 0.3804 -0.2495 -0.2091 0.07104 -0.06125 -0.0942 -0.2115
000040 58 b6 23 30 76 35 a1 b1 d1 30 2a ac 29 b4 e3 b2
       -0.3965 0.1293 0.3413 -0.1759 0.1505 -0.06506 -0.26 -0.2152
000050 f4 ae ff 34 e3 2e 64 32 33 35 ca b5 b3 35 30 b5
       -0.10864 0.3123 0.1076 0.1997 0.325 -0.3618 0.3562 -0.3242
000060 3d 32 7c 35 3b 30 f4 2e 4b b3 89 a9 89 24 08 b0
       0.195 0.3428 0.1322 0.10864 -0.2279 -0.04324 0.01772 -0.126
000070 84 b0 17 36 15 2b 25 2c 3e b4 a7 32 e5 b2 19 b5
       -0.1411 0.3806 0.05533 0.06476 -0.2651 0.2079 -0.2155 -0.3186
000080 20 35 c7 21 6c 2d 02 a5 7c b5 dd b1 33 30 97 35
       0.3203 0.011284 0.0847 -0.01956 -0.3428 -0.1832 0.1312 0.3494
000090 84 35 05 b1 7c b0 c5 b1 d2 31 9c b1 a2 b0 46 2b
       0.3447 -0.1569 -0.1401 -0.1803 0.1819 -0.1753 -0.1448 0.05682
0000a0 84 9c b7 31 3d aa df 34 55 34 93 b3 e7 30 9b 35
       -0.00441 0.1786 -0.04874 0.3044 0.2708 -0.2367 0.1532 0.3503
0000b0 f2 35 57 b1 88 34 98 af 73 34 f3 b0 11 ad 08 b0
       0.3716 -0.1669 0.2832 -0.11865 0.278 -0.1547 -0.07916 -0.126
0000c0 e7 b5 ba 34 8c 35 0c ae 0d b4 a0 af 76 b3 0f 34
       -0.369 0.2954 0.3467 -0.0945 -0.2532 -0.11914 -0.2332 0.2537
0000d0 53 35 f8 2d a3 2c 9e 33 69 b6 62 b3 a3 31 a8 ac
       0.3328 0.09326 0.07245 0.238 -0.4006 -0.2307 0.1761 -0.07275
0000e0 8b 34 91 b1 cf b4 2b 26 d8 31 47 2e 83 1f f6 b2
       0.284 -0.174 -0.3005 0.0241 0.1826 0.0981 0.007336 -0.2175
0000f0 77 b3 7c 34 86 35 b4 a1 29 32 4d 20 b8 33 66 b6
       -0.2333 0.2803 0.3452 -0.01114 0.1925 0.0084 0.2412 -0.4
000100 ec b0 e1 2e af b5 e9 28 e8 ae 0c af 44 a0 1f 34
       -0.1538 0.1075 -0.3552 0.03836 -0.1079 -0.1101 -0.00833 0.2576
000110 a1 33 45 2b 55 b2 bd b6 32 35 6b af 4d 32 ba b2
       0.2384 0.0568 -0.1979 -0.4211 0.3247 -0.1159 0.1969 -0.2102
000120 3f 32 7b 30 dd b4 c1 22 a7 2e dc 17 4a 22 61 34
       0.1952 0.14 -0.304 0.01319 0.10394 0.001919 0.01228 0.2737
000130 db 31 1a 34 2d 27 47 33 78 b4 b2 ae 05 36 3f 2f
       0.183 0.2563 0.02803 0.2274 -0.2793 -0.1046 0.3762 0.1132
000140 50 ad 58 ac 40 2c 0c b6 1f 34 c0 36 23 36 af ac
       -0.083 -0.0679 0.0664 -0.378 0.2576 0.4219 0.3835 -0.0732
000150 ae b1 98 b4 50 34 04 af ed b3 7c b0 3d b5 54 32
       -0.1775 -0.287 0.2695 -0.1096 -0.2477 -0.1401 -0.3274 0.1978
000160 1c b5 3d b3 65 33 aa b0 84 35 92 b3 de 2e f9 b5
       -0.3193 -0.2262 0.2311 -0.1458 0.3447 -0.2366 0.1073 -0.3733
000170 b9 32 c4 34 e0 27 7f a4 8b b6 e0 2d 74 a9 44 31
       0.2101 0.2979 0.03076 -0.01756 -0.409 0.0918 -0.0426 0.1646
000180 42 aa 93 b5 00 35 23 2a d3 b5 f7 28 db b5 52 2d
       -0.0489 -0.3484 0.3125 0.04794 -0.364 0.0388 -0.366 0.0831
000190 64 2a b5 32 9c a4 07 b4 d1 b1 47 b3 3a b6 a0 2e
       0.04993 0.2096 -0.018 -0.2517 -0.1818 -0.2274 -0.3892 0.1035
0001a0 59 b2 2b a9 bd 34 1a 25 c9 2f ba b6 e3 b5 08 36
       -0.1984 -0.04037 0.2961 0.01993 0.12164 -0.4204 -0.368 0.377
0001b0 88 a6 64 34 10 b9 9c 33 1d 33 25 34 9a 34 f3 26
       -0.02551 0.2744 -0.633 0.2378 0.2223 0.259 0.2876 0.02715

sequential/conv2d/Conv2D;sequential/conv2d/Conv2D f2 [16, 3, 3, 3]
000000 ef 32 9f b0 8a b2 3d 1f 93 2b a6 b0 2a a0 86 2e
       0.2167 -0.1444 -0.2043 0.00707 0.05917 -0.1453 -0.00813 0.1019
000010 0d a8 83 ad b4 24 57 a8 0f aa f4 b0 91 ac 07 a8
       -0.03165 -0.0861 0.01837 -0.0339 -0.04733 -0.1548 -0.07135 -0.03146
000020 7d 31 6d b0 7e 32 57 af e1 b1 fc 2f 08 b1 ca 2d
       0.1715 -0.1383 0.2029 -0.1147 -0.1837 0.12476 -0.1572 0.09045
000030 d7 2d 89 30 39 30 70 2e 58 b3 67 99 24 b1 0c a5
       0.09125 0.1417 0.132 0.1006 -0.2295 -0.002638 -0.1606 -0.01971
000040 cd 20 41 2f 8b 31 0d 2c 49 a8 62 27 59 b1 c3 2c
       0.00938 0.11334 0.1732 0.0633 -0.03348 0.02884 -0.1671 0.0744
000050 0d a9 75 b2 ee b1 45 ac fa 28 a4 ad 01 b2 62 a0
       -0.03946 -0.2018 -0.1853 -0.0667 0.03888 -0.08813 -0.1876 -0.00856
000060 31 ac 96 b1 b4 b3 49 b3 67 2d 63 27 4b 2c 5c 31
       -0.0655 -0.1746 -0.2407 -0.2277 0.0844 0.02885 0.0671 0.1675
000070 1c 1c e0 ac 83 aa f7 28 03 af 15 b1 60 b0 43 b3
       0.004013 -0.0762 -0.05087 0.0388 -0.10956 -0.1588 -0.1367 -0.2269
000080 21 b4 2d ae 6c b3 a5 ad a1 aa 7f ac 53 33 cd a9
       -0.258 -0.0965 -0.2319 -0.0882 -0.0518 -0.07025 0.2289 -0.04532
000090 8c 31 23 2c e4 a4 fe ad 9b 2f df a5 0f 34 7a 30
       0.1733 0.06464 -0.0191 -0.0936 0.11884 -0.02293 0.2537 0.1399
0000a0 1a 2f 15 b0 d8 b0 d2 2e d2 b3 bb a0 2c b4 c0 25
       0.11096 -0.1276 -0.1514 0.10657 -0.2444 -0.00924 -0.2607 0.02246
0000b0 12 a2 fa 34 f4 b4 43 ac bb b1 b9 b0 a2 1f aa b4
       -0.011856 0.311 -0.3096 -0.0666 -0.1791 -0.1476 0.007454 -0.2915
0000c0 83 28 f8 a4 ea 2f 24 aa 3d ac 46 20 ab a9 b3 b2
       0.03525 -0.01941 0.12366 -0.04797 -0.0662 0.00835 -0.04428 -0.2094
0000d0 55 2c 9b b1 49 2d 01 ad e8 ad 93 b0 f1 a6 be ac
       0.0677 -0.1752 0.0826 -0.0782 -0.0923 -0.143 -0.02711 -0.0741
0000e0 ae 30 b0 33 a5 27 0b a9 f5 31 71 9f 1e af 1c 30
       0.1462 0.2402 0.02986 -0.0394 0.1862 -0.007267 -0.1112 0.1284
0000f0 6d 2b 47 a5 7c a9 51 a9 cf 2e 16 32 43 2f b1 21
       0.058 -0.02061 -0.04285 -0.04153 0.1064 0.1902 0.11346 0.011116
000100 1d ae 94 9e cf a9 1f a6 7b b0 c3 1c 56 b1 ee 2f
       -0.0955 -0.006424 -0.04538 -0.02391 -0.14 0.00465 -0.1667 0.1239
000110 be 30 4b 30 1e b0 5f 30 f6 ac f5 ae 38 b2 ca b3
       0.1482 0.1342 -0.1287 0.1366 -0.0775 -0.1087 -0.1943 -0.2434
000120 6b 30 63 31 22 30 c4 b1 98 2e ce a8 a7 b1 81 2f
       0.1381 0.1683 0.1292 -0.1802 0.103 -0.03754 -0.1766 0.11725
000130 c0 2e aa 2e 50 2f b0 b1 a9 b0 9a 31 58 31 9e ae
       0.10547 0.1041 0.11426 -0.1777 -0.1456 0.175 0.167 -0.1034
000140 d9 30 a9 1f 19 26 d1 b1 2e 25 90 30 08 ab ee 1e
       0.1515 0.00748 0.02382 -0.1818 0.02023 0.1426 -0.05493 0.006767
000150 04 20 6f aa 44 30 0b 32 c4 ac 36 b1 1c 30 9c 29
       0.00784 -0.05026 0.1333 0.1888 -0.07446 -0.1628 0.1284 0.04382
000160 c7 b0 68 2d 14 14 00 a8 5a af 3c b2 39 2f 0a ad
       -0.1493 0.0845 0.000996 -0.03125 -0.11487 -0.1948 0.11285 -0.07874
000170 9a aa d0 31 e0 26 d5 b0 78 31 69 30 2a 2c 0f 2d
       -0.05157 0.1816 0.02686 -0.151 0.1709 0.1378 0.06506 0.07904
000180 85 2b f0 2c 2d b4 fe b0 2a ae 96 b2 36 9c 87 af
       0.05875 0.07715 -0.261 -0.156 -0.0963 -0.2058 -0.004112 -0.1176
000190 59 b1 73 26 de 26 45 af 0c 2b 0c 32 60 b1 9e 2d
       -0.1671 0.02519 0.02682 -0.1136 0.05505 0.189 -0.168 0.08777
0001a0 be 32 47 2d 93 2f b9 2c 21 ae ca a4 bc a4 55 a4
       0.2107 0.08246 0.11835 0.0738 -0.09576 -0.0187 -0.0185 -0.01692
0001b0 5f ad 41 25 f4 9c 28 ac bc b1 fc 2d 5e 2c e5 32
       -0.0839 0.02052 -0.004837 -0.06494 -0.1792 0.0935 0.06824 0.2155
0001c0 19 29 7a af 1a a1 0e ab 5f b2 92 95 af 30 04 b2
       0.03983 -0.1168 -0.009964 -0.0551 -0.1991 -0.00136 0.1464 -0.188
0001d0 9d 30 95 9e 95 a8 83 31 56 a0 fe b1 65 b2 0d 31
       0.1442 -0.006428 -0.0358 0.1722 -0.00847 -0.1873 -0.1998 0.1578
0001e0 10 2f bc a0 07 2d 91 b0 6b b2 0e b0 f1 ae c6 b3
       0.11035 -0.00925 0.07855 -0.1427 -0.2006 -0.1267 -0.10846 -0.2429
0001f0 1a b2 e3 30 ae ae cd af 1c 31 c0 26 29 b0 7d 20
       -0.1907 0.1527 -0.1044 -0.1219 0.1597 0.02637 -0.13 0.008766

sequential/conv2d_1/Conv2D;sequential/conv2d_1/Conv2D f2 [32, 3, 3, 16]
000000 e4 a0 26 31 13 30 95 32 f1 ae 9e aa a8 2c 84 31
       -0.00955 0.1609 0.1273 0.2057 -0.10846 -0.0517 0.07275 0.1724
000010 fc 33 75 30 50 31 b5 30 d9 ab 74 a5 0e aa ec 22
       0.2495 0.1393 0.166 0.1471 -0.0613 -0.0213 -0.0473 0.01352
000020 09 2d 17 2c 84 b1 bd 30 b4 ad e0 ac d2 30 8e 31
       0.0787 0.0639 -0.1724 0.1481 -0.0891 -0.0762 0.1506 0.1736
000030 ec 2e 9b 2d c8 a1 4f 30 59 af 7e b0 ec 15 e8 32
       0.10815 0.0876 -0.01129 0.1346 -0.1148 -0.1404 0.001446 0.2158
000040 92 2f dd b0 32 2b 81 ab 6e 2b 78 b1 0f ac 35 ab
       0.1183 -0.152 0.0562 -0.05862 0.05804 -0.1709 -0.0634 -0.0563
000050 66 b5 6e 2c 84 a9 94 a8 71 ad 1d 21 d0 32 ea 2c
       -0.3374 0.0692 -0.0431 -0.03577 -0.085 0.00999 0.2129 0.0768
000060 06 ad 2f a8 d5 31 6b b2 e8 ab 5c ae b8 28 b0 a4
       -0.0785 -0.03268 0.1823 -0.2006 -0.06177 -0.09937 0.03687 -0.01831
000070 49 30 f0 2c 5c ac 79 2b 8c 9d e0 ae 56 31 97 30
       0.1339 0.07715 -0.0681 0.05838 -0.005417 -0.1074 0.1667 0.1434
000080 88 a9 b0 9c 9e a8 b9 30 a5 1f ee a9 bd 30 8e 30
       -0.0432 -0.004578 -0.03607 0.1476 0.007465 -0.04633 0.1481 0.1423
000090 0d a9 0b 30 55 ac 0e 0c 14 b2 74 2b 84 28 d7 31
       -0.03946 0.1263 -0.0677 0.0002475 -0.19 0.05823 0.03528 0.1825
0000a0 26 30 4c ae 17 29 de 33 01 22 e0 b2 0f 29 4e a9
       0.1296 -0.0984 0.03976 0.2458 0.01173 -0.2148 0.03952 -0.04144
0000b0 6e b3 ea b1 42 26 30 ae eb 28 c0 2f c6 2b bc 1d
       -0.2322 -0.1848 0.02444 -0.0967 0.03842 0.1211 0.06073 0.0056
0000c0 70 ae 0f 25 96 33 57 b1 1b 9b b1 b1 e2 ae a5 2c
       -0.1006 0.01976 0.237 -0.1669 -0.00347 -0.1779 -0.10754 0.0726
0000d0 45 2f 04 ab 31 28 3e a7 87 b0 1b af 42 ad 73 aa
       0.1136 -0.0548 0.03275 -0.02829 -0.1415 -0.111 -0.08215 -0.05038
0000e0 39 1c 64 a6 32 a8 f8 a6 fb 2b c0 b1 9e 2d 0a 2c
       0.004124 -0.02496 -0.03278 -0.02722 0.06235 -0.1797 0.08777 0.0631
0000f0 07 ab 16 27 85 2f d0 a4 13 b0 14 2c d5 2d 03 24
       -0.0549 0.02768 0.1175 -0.0188 -0.1273 0.0637 0.0911 0.01567
000100 46 2f 7b 29 84 2d 9e 30 15 b3 44 ac a0 9b 32 b2
       0.11365 0.04282 0.0862 0.1443 -0.2213 -0.06665 -0.003723 -0.1936
000110 37 b4 b5 ae eb 2f a4 ae f6 a8 d7 2b 5c 2a 1e 25
       -0.2634 -0.1048 0.1237 -0.10376 -0.03876 0.06125 0.04968 0.01999
000120 35 2e 4d a4 61 2e 38 2e 0b b0 7b 2d 00 2e 41 30
       0.097 -0.0168 0.0997 0.09717 -0.1263 0.08563 0.09375 0.1329
000130 9e 31 31 28 3f 24 02 2e 7a 22 b6 ae c9 a0 5f ab
       0.1755 0.03275 0.01659 0.0939 0.01265 -0.10486 -0.009346 -0.0576
000140 1e 31 c3 a2 37 2f 56 2a 1b 2d 16 b0 30 2b ad ad
       0.1599 -0.01321 0.11273 0.0495 0.0798 -0.1277 0.05615 -0.0887
000150 a0 27 fa 2f e2 2c 55 1f 4d 2f 0b b0 b1 2a de a9
       0.02979 0.12463 0.0763 0.00716 0.1141 -0.1263 0.05228 -0.04584
000160 37 ae 3b 30 6c a6 90 a1 92 2f 2b a8 44 ae 1a 10
       -0.0971 0.1322 -0.02509 -0.010864 0.1183 -0.03256 -0.0979 0.0005007
000170 84 b1 46 b2 44 aa f7 a3 28 ab dd af 4b 2e b0 b0
       -0.1724 -0.196 -0.04895 -0.01556 -0.0559 -0.12286 0.0983 -0.1465
000180 7c af e1 2f 04 33 7e 2d 7f ab 5d 2c 29 2c 5c 24
       -0.11694 0.1231 0.2192 0.0858 -0.05856 0.0682 0.065 0.01703
000190 3e ab 5e a5 d2 25 fe a5 cb 28 1d b1 97 ae 7d 2a
       -0.05658 -0.02097 0.02274 -0.0234 0.03745 -0.1598 -0.10297 0.0507
0001a0 0a 31 8a a5 a2 af 13 af 56 a4 3f 9d b3 2f d8 ad
       0.1575 -0.02164 -0.11926 -0.11053 -0.01694 -0.005123 0.1203 -0.0913
0001b0 43 a2 eb 2c c8 2b c9 aa 3a 2f bd a8 ab 26 17 2e
       -0.01223 0.07684 0.0608 -0.053 0.1129 -0.03702 0.02605 0.09515
0001c0 42 2b 03 2b 94 a7 f2 2a 8c aa 16 2c 19 27 38 1f
       0.0567 0.05478 -0.0296 0.05426 -0.05115 0.06384 0.02773 0.00705
0001d0 53 28 02 28 9d 1e 53 a7 62 af d0 29 e5 2e 1b 28
       0.03378 0.0313 0.00646 -0.02861 -0.11536 0.0454 0.1077 0.03207
0001e0 5c 2b 66 2f 51 2f 33 30 06 1f 60 2d 9b 2c 08 2e
       0.0575 0.1156 0.1143 0.1312 0.00686 0.084 0.07196 0.09424
0001f0 08 ad bd ac 1c b1 a9 2e 3e 2b 7b b0 1e b1 99 23
       -0.0786 -0.07404 -0.1597 0.10406 0.05658 -0.14 -0.1599 0.01484

sequential/conv2d_2/Conv2D;sequential/conv2d_2/Conv2D f2 [64, 3, 3, 32]
000000 a5 2a 57 a8 aa b1 55 2d c5 a7 d6 b1 f6 ae fe ac
       0.0519 -0.0339 -0.177 0.0833 -0.03035 -0.1824 -0.10876 -0.078
000010 62 32 48 b1 a0 aa 3d aa 2a b1 74 b0 83 30 43 b0
       0.1995 -0.165 -0.05176 -0.04874 -0.1614 -0.1392 0.141 -0.1332
000020 3a 30 ed 2e 86 32 99 2e a0 26 9e 2d ed a3 49 1e
       0.1321 0.1082 0.2039 0.1031 0.02588 0.08777 -0.01548 0.006138
000030 e1 ad 1f ab da 29 8d b0 7f 28 15 30 ff b4 78 b0
       -0.09186 -0.05563 0.04572 -0.1422 0.03513 0.1276 -0.3123 -0.1396
000040 96 30 29 a2 1d 28 11 2c 48 30 7a ad 6d 2c a1 2f
       0.1433 -0.01203 0.03214 0.06354 0.1338 -0.0856 0.06915 0.1192
000050 1b 1c 1d aa f7 24 10 31 12 94 03 30 a8 a9 57 b2
       0.00401 -0.04776 0.0194 0.1582 -0.000994 0.1254 -0.0442 -0.1981
000060 51 1d 1d b0 a6 a5 92 30 14 23 48 2c 95 ae 35 a9
       0.00519 -0.1285 -0.02206 0.1428 0.013824 0.0669 -0.10284 -0.04068
000070 40 2e 44 ac 19 ad 9e 28 8d a5 0a ae aa 31 7f a6
       0.09766 -0.06665 -0.07965 0.03607 -0.02168 -0.09436 0.177 -0.02538
000080 91 a8 82 a8 99 28 92 2a a4 2a 76 ac a8 2c df af
       -0.03568 -0.03522 0.03592 0.05133 0.05188 -0.0697 0.07275 -0.123
000090 57 ad f2 2a 6f 2a 61 9a 32 29 5a 0b 36 ae e1 b1
       -0.08344 0.05426 0.05026 -0.003115 0.0406 0.0002244 -0.09705 -0.1837
0000a0 0e 2c 89 b0 bf ae ce 2c f3 ab 8c ac 24 23 27 30
       0.06335 -0.1417 -0.1054 0.0751 -0.0621 -0.07104 0.01395 0.1298
0000b0 29 af 7c ac cb 23 80 ac 69 ac f7 2b 50 2c 20 2d
       -0.1119 -0.07007 0.01522 -0.0703 -0.0689 0.06223 0.0674 0.0801
0000c0 06 a7 61 2d da b1 eb 2c c3 a8 3f 31 84 ad d7 2d
       -0.02744 0.08405 -0.1829 0.07684 -0.0372 0.164 -0.0862 0.09125
0000d0 6b 31 56 a8 d9 2b a9 25 de 20 0a b0 29 ab ae 2d
       0.1693 -0.03387 0.0613 0.02211 0.00951 -0.1262 -0.05594 0.08875
0000e0 8d 2c d0 30 43 2b 6e ac 59 2b 0c 28 b4 30 0c b1
       0.0711 0.1504 0.05673 -0.0692 0.0574 0.03162 0.147 -0.1577
0000f0 8b b0 14 2f 3d ad 4f ad 02 1c 01 2b 0b af 7d ab
       -0.142 0.1106 -0.08185 -0.08295 0.003914 0.05472 -0.11005 -0.0585
000100 97 32 08 af 9d a9 96 a0 04 24 19 a0 6d 24 cb a5
       0.2059 -0.10986 -0.04385 -0.00896 0.01569 -0.008 0.01729 -0.02263
000110 55 33 d0 a3 95 af 5c aa 47 ac 75 2c 9f ae 39 30
       0.2291 -0.01526 -0.11847 -0.04968 -0.06683 0.06964 -0.10345 0.132
000120 e9 a6 5e ac 0b 2c 87 a2 32 2d e5 2f aa a5 b9 af
       -0.027 -0.06824 0.0632 -0.01275 0.0812 0.12335 -0.02213 -0.12067
000130 7c 15 88 21 2b 2c a5 a4 f2 29 e7 1d e8 2e f6 ad
       0.001339 0.0108 0.0651 -0.01814 0.04645 0.005764 0.1079 -0.09314
000140 e2 2b b9 2f 2c 9c 18 94 5a 32 61 b0 16 ae d1 2f
       0.06158 0.12067 -0.004074 -0.000999 0.1985 -0.1368 -0.0951 0.12213
000150 68 aa 6c a8 7f aa 6e 30 f5 aa 56 2f 3c ac 40 aa
       -0.05005 -0.03455 -0.05075 0.1384 -0.05435 0.1146 -0.06616 -0.04883
000160 0d 2b f8 2c f0 ab 0c b0 9e a3 c3 2d aa a5 f4 ae
       0.05508 0.07764 -0.062 -0.1265 -0.01488 0.09 -0.02213 -0.10864
000170 88 2f 44 ad 41 9c bf 05 6c ae eb ae b1 ad 54 2d
       0.1177 -0.0823 -0.004154 8.77e-05 -0.10034 -0.1081 -0.0889 0.08325
000180 9d ad 0b ad a4 b1 72 a5 08 ad 94 a9 bf ad b2 af
       -0.0877 -0.0788 -0.1763 -0.02127 -0.0786 -0.04358 -0.0898 -0.12024
000190 b2 26 7e aa 89 31 0c ad 4b 25 4a ad 08 a9 2f b0
       0.02615 -0.05072 0.173 -0.07886 0.02068 -0.08264 -0.0393 -0.1307
0001a0 f7 a8 73 32 5b ad e4 2a 37 a2 5a ac 24 2e 25 b2
       -0.0388 0.2015 -0.0837 0.05383 -0.01214 -0.068 0.09595 -0.192
0001b0 92 b3 45 2d 00 a9 aa b0 44 22 90 2c db a1 e4 2e
       -0.2366 0.08234 -0.03906 -0.1458 0.01224 0.0713 -0.01144 0.10767
0001c0 ce 2e 3d ac 41 28 f6 ac 24 b4 dd af 09 a9 65 af
       0.1063 -0.0662 0.03323 -0.0775 -0.2588 -0.12286 -0.03934 -0.11554
0001d0 08 ae 9f b2 c1 a6 54 b1 8e ae 23 29 d3 aa 95 b0
       -0.09424 -0.2069 -0.02638 -0.1665 -0.1024 0.04013 -0.0533 -0.1432
0001e0 fc 25 91 b0 e1 30 e2 2b 09 30 8b a5 e7 a2 69 ad
       0.02338 -0.1427 0.1525 0.06158 0.1261 -0.02165 -0.01348 -0.08453
0001f0 64 b0 08 ad 59 ac 26 25 18 24 3f 24 cc 99 bf 2d
       -0.1372 -0.0786 -0.06793 0.02011 0.01599 0.01659 -0.00283 0.0898

sequential/conv2d_3/Conv2D;sequential/conv2d_3/Conv2D f2 [128, 3, 3, 64]
000000 61 28 b9 24 b7 2d 63 a8 8a 2b 04 31 46 aa c7 9c
       0.0342 0.01845 0.0893 -0.03427 0.0589 0.1567 -0.049 -0.004665
000010 af 2b 98 ae 7a 30 34 b1 02 a7 3e 2b 42 9f 9d a5
       0.06003 -0.103 0.1399 -0.1626 -0.02737 0.05658 -0.007088 -0.02193
000020 2b 16 ff ac 08 ad 91 2c df a4 cd a4 97 a9 9a b0
       0.001506 -0.07806 -0.0786 0.07135 -0.01903 -0.01875 -0.04367 -0.1438
000030 bd 25 1f a6 70 a7 5e 2b 4c 1c 15 23 22 2b 52 a2
       0.02242 -0.02391 -0.02905 0.05756 0.004196 0.01383 0.05573 -0.012344
000040 0d ad 76 1d 43 13 fe a8 5f b0 f8 1a 66 31 ba 29
       -0.0789 0.005333 0.0008864 -0.039 -0.1366 0.003403 0.1687 0.04474
000050 76 26 17 b2 35 29 20 2f ca ad 44 2b ab a7 a6 26
       0.02524 -0.1903 0.04068 0.1113 -0.09045 0.05676 -0.02995 0.02597
000060 a4 28 ff a1 89 27 aa a7 8f aa a0 b0 41 29 46 1c
       0.03625 -0.01171 0.02943 -0.02994 -0.05124 -0.1445 0.04105 0.004173
000070 db 2b 7a a1 c3 a6 f2 2a 25 aa a8 23 09 aa db 25
       0.06137 -0.0107 -0.02641 0.05426 -0.048 0.01495 -0.04715 0.02287
000080 42 2b f9 a6 9c 24 45 90 95 9a dd a7 8f b2 fe 9e
       0.0567 -0.02724 0.018 -0.000521 -0.003214 -0.03072 -0.205 -0.00683
000090 bb a3 91 b0 56 9a 1d 30 c1 ac 2e 1f e4 2c ce a6
       -0.0151 -0.1427 -0.003094 0.1285 -0.0743 0.00701 0.0764 -0.02658
0000a0 dc 27 06 26 01 31 d3 af 8b ac 43 2d 0c 28 e9 a9
       0.0307 0.02353 0.1564 -0.12225 -0.071 0.0822 0.03162 -0.04617
0000b0 8f a5 cc a8 5a a5 21 a1 c6 20 23 1f bd ab ff a2
       -0.02171 -0.03748 -0.0209 -0.01002 0.00932 0.00697 -0.06046 -0.013664
0000c0 95 24 23 a8 0e 23 14 a6 69 9a 2f ad c8 ac 83 a9
       0.0179 -0.03232 0.01378 -0.02374 -0.00313 -0.081 -0.0747 -0.04306
0000d0 58 b0 25 ae 88 99 30 2f cd ad f2 25 b9 aa 78 af
       -0.1357 -0.096 -0.0027 0.1123 -0.09064 0.02322 -0.05252 -0.1167
0000e0 d8 2f 65 28 e1 27 97 a2 69 84 aa aa fa 2d 30 a7
       0.12256 0.03433 0.03078 -0.01287 -6.73e-05 -0.05206 0.0934 -0.02808
0000f0 8d aa 5d 2a 6f 2c 91 a8 1c 21 8c 28 0c 24 e2 25
       -0.05118 0.0497 0.0693 -0.03568 0.00998 0.03552 0.01581 0.02298
000100 45 a3 f0 2a b8 26 07 a9 f7 20 38 2c 98 2a 77 28
       -0.0142 0.0542 0.02625 -0.03928 0.0097 0.0659 0.0515 0.03488
000110 f5 2c 57 2f 7a a3 10 2c 7d af e7 25 a8 2b d4 2f
       0.07745 0.1147 -0.0146 0.0635 -0.117 0.02306 0.0598 0.1223
000120 68 a8 3a ab 99 28 51 a2 dd 13 7c a9 73 27 35 a8
       -0.03442 -0.05646 0.03592 -0.01234 0.00096 -0.04285 0.0291 -0.03287
000130 19 28 6b a9 9e 29 bb 28 8b 81 c0 1e c4 25 52 1e
       0.032 -0.04233 0.04388 0.03696 -2.354e-05 0.00659 0.02252 0.006172
000140 c7 1d df a5 dc 2a 37 ad 98 28 e9 b0 1d ae 4f 20
       0.005642 -0.02293 0.0536 -0.0815 0.0359 -0.1534 -0.0955 0.008415
000150 6e 28 d8 af 5e ad 9d 2e 30 22 df 28 99 2f 18 b0
       0.0346 -0.12256 -0.08386 0.10333 0.012085 0.03806 0.1187 -0.1279
000160 9c ae 6d a7 77 27 5d aa c8 24 a1 25 c5 26 11 a8
       -0.1033 -0.029 0.02916 -0.0497 0.01868 0.02199 0.02644 -0.03177
000170 36 29 83 a6 49 ae 78 24 e3 a6 43 ac 2d 2d 88 a5
       0.0407 -0.02544 -0.0982 0.01746 -0.0269 -0.0666 0.0809 -0.0216
000180 73 ad d9 ac f9 a0 26 ab 5d ab f6 29 8a 2f fa a9
       -0.08514 -0.07574 -0.00971 -0.05585 -0.05753 0.04657 0.1178 -0.0467
000190 5a a7 9b 29 47 b0 31 b0 43 0e 58 ab a9 2b ff ac
       -0.02872 0.0438 -0.1337 -0.131 0.0003822 -0.05737 0.05984 -0.07806
0001a0 8c 1e e3 ad 3d ad b4 a6 34 a0 0e b0 92 ab 30 b1
       0.006393 -0.092 -0.08185 -0.02618 -0.00821 -0.1267 -0.05914 -0.1621
0001b0 38 ac e1 ad 7f 22 be 28 98 a3 ac ac 74 ab 36 2d
       -0.0659 -0.09186 0.01269 0.03705 -0.01483 -0.073 -0.05823 0.0814
0001c0 2a 25 81 ae 07 ac f3 24 c5 af 4d 2d 0c ad b3 1f
       0.02017 -0.1016 -0.0629 0.01933 -0.1214 0.0828 -0.07886 0.00752
0001d0 5f ac cf b1 e1 a6 1a 26 7f a0 21 ac 5e 24 48 b1
       -0.0683 -0.1815 -0.02687 0.02383 -0.00878 -0.0645 0.01706 -0.165
0001e0 47 2b 4d 29 d2 25 52 ac a8 2a 18 a8 e9 a7 e5 25
       0.05685 0.0414 0.02274 -0.0675 0.052 -0.03198 -0.0309 0.02303
0001f0 73 a1 36 a3 a3 b2 7e 27 cc 20 f3 0f ea 9f 92 ad
       -0.01064 -0.014084 -0.2074 0.02927 0.00937 0.0004852 -0.00773 -0.08704
